data.pth (torch, 5482 bytes, 6 tensors)

l1.weight f4 [8, 55]
0.3024368 0.20683296 0.47424054 -0.1278299 0.14260249 0.2629605 -0.007796335 -0.091358736
-0.31044203 -0.2574575 -0.25291413 0.29189467 0.27661306 0.40514895 0.43665063 0.26474702
0.25637105 -0.23150699 0.5027658 -0.3379046 0.1266012 0.67657447 0.29126984 0.56551576
0.62800866 0.506847 -0.052705 0.531291 -0.24086308 0.20804441 -0.29028532 -0.23164257
-0.2440233 0.26084107 -0.3039095 -0.4148638 -0.008938042 0.11950204 0.49021047 -0.24260801
-0.5198421 0.3838499 0.18381688 -0.54967445 -0.24978821 0.3618215 0.20570551 -0.51183486
0.30072272 -0.10075462 0.22026777 0.5065791 -0.33616784 0.0669395 0.32997406 0.40300706
-0.0750562 -0.008477325 0.29380545 -0.047715798 -0.10222308 0.044636916 -0.0026690192 0.39744562
0.40813157 0.41300574 -0.21007155 0.54416883 0.29936543 0.17055127 -0.12404244 0.0041794665
0.31632116 -0.24756353 0.4069838 -0.101341344 -0.37125486 0.19534548 -0.37136203 -0.371448
-0.088490926 -0.1695191 -0.4691602 0.32299617 0.23994668 0.2638738 0.50829476 0.4209073
-0.021162715 0.33351007 0.64661103 -0.25539023 0.03263417 -0.37138417 0.40767887 0.5940974
-0.13007462 -0.21515334 0.6383695 0.2975133 0.81797343 0.34950453 0.72314686 -0.12452155
0.2717289 -0.10321581 -0.12765291 0.43566367 -0.170487 -0.2042103 -0.12946057 -0.19265756
-0.15148368 -0.36969134 -0.1665918 0.095655166 0.093036674 -0.047870856 0.5756206 0.43161908
0.71565 -0.21518604 -0.5766827 0.05560853 -0.01982215 0.058344204 -0.15306088 0.3136174
0.025492372 0.47413257 -0.14722873 0.08765305 -0.03701725 -0.0077128904 0.27352074 0.05817484
-4.2580077e-06 -0.47533473 0.39067936 -0.13022844 0.30006588 0.3838242 0.2753358 0.02325744
-0.33993292 0.55231714 -0.2799743 -0.1644858 0.13818468 0.38611645 0.6729088 -0.061241157
0.07085213 -0.32783994 -0.2115905 -0.5766246 -0.064491995 0.3356134 0.02225439 0.5433906
-0.17235622 -0.13861771 -0.1805438 0.007902399 0.0004051957 -0.19078904 0.50886786 0.5903372
0.4719164 0.62986207 0.012054451 -0.30071416 0.5917583 0.33410713 -0.06916574 0.35598367
0.693307 0.086095564 -0.23559445 -0.16644047 -0.091983974 -0.28752324 -0.059680074 -0.22627519
0.32142898 0.34475788 -0.31822324 0.08497763 -0.31826884 -0.31827217 -0.4878036 0.71969
-0.12768638 -0.012473508 -0.119339734 -0.12962031 -0.016043572 0.4612008 0.04097929 0.020080054
-0.09380023 0.4509779 0.46475697 -0.31822652 0.044669442 -0.034577005 -0.13309288 0.4431453
0.08772199 0.07776938 -0.20681567 0.037624177 -0.15645503 -0.20297882 -0.14636345 -0.25662383
-0.09337062 0.1113246 0.5540113 0.47076198 0.604004 -0.0778105 0.1447761 -0.13489321
-0.092933044 -0.15051523 -0.5384062 -0.19319502 0.54017293 0.25514156 0.53069425 -0.4034721
0.80397505 -0.0012758358 0.06005721 -0.16838552 -0.055679534 0.1359451 -0.36845452 0.4767431
-0.15332507 -0.6215518 0.555246 -0.6216578 -0.6216952 -0.39386803 -0.2826983 -0.26577818
0.35063434 0.32567674 0.3872538 0.182532 -0.20190391 -0.09301758 -0.015313139 0.13350649
00000000: ffd8 9a3e 05cc 533e a8cf f23e d7e5 02be
00000010: 6306 123e c2a2 863e 6678 ffbb 4a1a bbbd
00000020: 42f2 9ebe 78d1 83be f67d 81be 3873 953e
00000030: 3aa0 8d3e af6f cf3e ac90 df3e ec8c 873e
00000040: 1143 833e 2b10 6dbe 42b5 003f d501 adbe
00000050: bfa3 013e fc33 2d3f 5221 953e a4c5 103f
00000060: 2dc5 203f bac0 013f 33e1 57bd b002 083f
00000070: d0a4 76be 9809 553e 47a0 94be b633 6dbe
00000080: 3ee1 79be f68c 853e 079a 9bbe 0769 d4be
00000090: de70 12bc 7cbd f43d defc fa3e 3c6e 78be
000000a0: 5f14 05bf f987 c43e 7e3a 3c3e 77b7 0cbf
000000b0: 7bc8 7fbe ab40 b93e 77a4 523e 9c07 03bf
000000c0: 54f8 993e 7058 cebd e08d 613e 2baf 013f
000000d0: 311e acbe 9417 893d 5cf2 a83e f156 ce3e
000000e0: 11b7 99bd 7ae4 0abc ab6d 963e a471 43bd
000000f0: 565a d1bd 33d5 363d b6ea 2ebb fe7d cb3e
00000100: 9ff6 d03e 7d75 d33e ff1c 57be a64e 0b3f
00000110: 6d46 993e fea4 2e3e f609 febd e8f3 883b
00000120: d9f4 a13e 4b81 7dbe 2e60 d03e 0d8c cfbd
00000130: 1e15 bebe a508 483e 2a23 bebe 6f2e bebe
00000140: bb3a b5bd 6a96 2dbe c435 f0be c15f a53e
00000150: 95b4 753e 771a 873e 9b1f 023f 2981 d73e
00000160: 6e5d adbc d5c1 aa3e 4d88 253f 82c2 82be
00000170: 68ab 053d 1126 bebe 49bb d03e c416 183f
00000180: 4832 05be 2851 5cbe 2f6c 233f aa53 983e
00000190: b566 513f 42f2 b23e 2720 393f 2805 ffbd
000001a0: 0d20 8b3e d062 d3bd 72b7 02be 4f0f df3e
000001b0: 2594 2ebe 811c 51be 5091 04be 0648 45be
000001c0: 8a1e 1bbe 2f48 bdbe 0a97 2abe dbe6 c33d
000001d0: 038a be3d 3b14 44bd df5b 133f 2dfd dc3e
000001e0: d734 373f bb59 5cbe 7aa1 13bf c5c5 633d
000001f0: 1062 a2bc 55fa 6e3d febb 1cbe 7692 a03e
00000200: 61d5 d03c 81c1 f23e 21c3 16be 7183 b33d
00000210: 669f 17bd 6abc fcbb e90a 8c3e be48 6e3d
00000220: 02e0 8eb6 135f f3be 2007 c83e 9b5a 05be
00000230: 3ca2 993e 9b84 c43e d0f8 8c3e 6386 be3c
00000240: b00b aebe a864 0d3f cb58 8fbe f76e 28be
00000250: 4980 0d3e 0eb1 c53e c043 2c3f 02d8 7abd
00000260: ec1a 913d a3da a7be 2eab 58be ab9d 13bf
00000270: 6114 84bd 85d5 ab3e d74e b63c a51b 0b3f
00000280: 267e 30be cdf1 0dbe 79e0 38be 1079 013c
00000290: 7270 d439 345e 43be 2a45 023f 5720 173f
000002a0: 079f f13e a43e 213f 0880 453c 35f7 99be
000002b0: 797d 173f 1710 ab3e c4a6 8dbd 7e43 b63e
000002c0: 917c 313f df52 b03d ac3f 71be 5f6f 2abe
000002d0: 1862 bcbd 3f36 93be 1873 74bd afb4 67be
000002e0: 5792 a43e 1b84 b03e 28ee a2be c008 ae3d
000002f0: 22f4 a2be 92f4 a2be 65c1 f9be 9b3d 383f
00000300: 38c0 02be af5d 4cbc 6468 f4bd 30bb 04be
00000310: cf6d 83bc 8322 ec3e e6d9 273d ed7e a43c
00000320: 561a c0bd 93e6 e63e a0f4 ed3e 96ee a2be
00000330: 4ef7 363d 9ea0 0dbd 8049 08be f1e3 e23e
00000340: 96a7 b33d 8d45 9f3d 7dc7 53be cf1b 1a3d
00000350: bf35 20be aed9 4fbe 4de0 15be 3364 83be
00000360: 1839 bfbd 27fe e33d afd3 0d3f b707 f13e
00000370: 02a0 1a3f 1d5b 9fbd 3040 143e 7221 0abe
00000380: ae53 bebd aa20 1abe fdd4 09bf ead4 45be
00000390: c648 0a3f eaa1 823e 94db 073f e593 cebe
000003a0: 4fd1 4d3f f239 a7ba 8dfe 753d 416d 2cbe
000003b0: 3910 64bd 3135 0b3e 12a6 bcbe ac17 f43e
000003c0: 3f01 1dbe 051e 1fbf 9a24 0e3f f724 1fbf
000003d0: 6b27 1fbf 12a9 c9be d5bd 90be 1414 88be
000003e0: 5886 b33e 1abf a63e 2146 c63e abe9 3a3e
000003f0: e6bf 4ebe 0080 bebd f6e3 7abc edb5 083e

l1.bias f4 [8]
0.7661114 0.3713804 0.5781793 0.31818596 0.6216481 0.35316017 0.7341713 0.77975076
00000000: e01f 443f 9225 be3e 8f03 143f 45e9 a23e
00000010: 5424 1f3f 69d1 b43e a6f2 3b3f bf9d 473f

l2.weight f4 [8, 8]
0.47877038 -0.45083204 0.48165163 1.0544685 -0.3369404 -1.0241729 0.6544733 0.96133345
-1.1625582 0.7918453 0.63747334 0.03834285 0.020020643 0.35428792 0.74054897 0.5066488
-0.94512963 0.76329166 0.44721815 -0.8006395 -0.2604754 0.740286 0.85447276 0.0024553959
1.210962 -0.9912546 0.094389796 -1.1157259 -0.86702156 0.5199901 1.0806376 0.5658367
-0.20595448 0.1880257 -0.22686014 -0.275555 -0.040608782 -0.28304887 0.039160922 -0.13187343
0.8670556 0.5701495 -0.96391803 0.46592924 1.044135 0.94403094 0.32833034 -0.9981731
0.32187724 0.8082857 1.2745608 -0.5244619 1.5707028 -0.65831023 0.017334938 1.3240963
-0.62924635 0.58823526 -0.7817965 0.21808232 -1.1127298 0.49788088 0.32336774 -0.5033851
00000000: 6421 f53e 75d3 e6be 0b9b f63e d3f8 863f
00000010: 7483 acbe 1918 83bf 908b 273f f319 763f
00000020: b5ce 94bf 60b6 4a3f 7431 233f 640d 1d3d
00000030: 5502 a43c 3a65 b53e 9e94 3d3f bcb3 013f
00000040: 04f4 71bf 1567 433f c7f9 e43e b6f6 4cbf
00000050: 085d 85be 6283 3d3f babe 5a3f b5ea 203b
00000060: ce00 9b3f ddc2 7dbf 704f c13d 1bd0 8ebf
00000070: 20f5 5dbf 121e 053f 5552 8a3f adda 103f
00000080: bbe5 52be cf89 403e 064e 68be 8c15 8dbe
00000090: 6555 26bd c8eb 90be 3467 203d d409 07be
000000a0: 5bf7 5d3f 51f5 113f 55c3 76bf 478e ee3e
000000b0: 37a6 853f 03ac 713f ea1a a83e 4688 7fbf
000000c0: 18cd a43e d0eb 4e3f cf24 a33f 2343 06bf
000000d0: ca0c c93f 0587 28bf 0002 8e3c fd7b a93f
000000e0: 4a16 21bf 9696 163f d123 48bf f950 5f3e
000000f0: ee6d 8ebf 3eea fe3e 7590 a53e d9dd 00bf

l2.bias f4 [8]
0.73017156 0.08116251 -0.26814404 0.40396225 -0.033686735 0.1965096 0.67619675 -0.12937649
00000000: 86ec 3a3f 8838 a63d 2d4a 89be 24d4 ce3e
00000010: 1afb 09bd d039 493e 3b1b 2d3f 457b 04be

l3.weight f4 [7, 8]
-1.0212698 -0.4342407 -0.29799876 0.7919893 0.21526523 0.7283322 -1.1449263 -0.6442606
0.2700592 0.2954067 -0.9965476 -1.6161149 -0.24963471 -1.3400228 0.96814626 -0.22695008
0.042375594 -0.3277182 -0.5307872 1.0477697 0.14705186 -1.1704865 0.16073841 -0.6089641
0.9097651 -0.3883518 -0.2727934 -1.1818297 -0.23016076 0.20284113 -0.78061944 -0.4524676
-0.7707735 0.5866774 0.57833105 -0.6113266 0.10845746 -0.61557466 0.07498472 -0.6999371
-1.0551559 0.4693075 0.36090848 -0.21019347 0.15830615 0.30059627 -0.92560184 0.5401599
-0.8651156 -0.40126115 -0.6649742 -1.1928511 -0.19933304 1.190845 0.5002027 -0.29833025
00000000: f8b8 82bf cc54 debe 4b93 98be d0bf 4a3f
00000010: 7d6e 5c3e fb73 3a3f f28c 92bf 43ee 24bf
00000020: 3345 8a3e 8c3f 973e be1d 7fbf dadc cebf
00000030: 3ea0 7fbe de85 abbf 6fd8 773f 9a65 68be
00000040: 0892 2d3d aeca a7be ace1 07bf 511d 863f
00000050: c394 163e 80d2 95bf 9c98 243e 12e5 1bbf
00000060: 5ee6 683f 0cd6 c6be 94ab 8bbe 3246 97bf
00000070: 43af 6bbe 96b5 4f3e add6 47bf d5a9 e7be
00000080: 6951 45bf 7d30 163f 810d 143f e67f 1cbf
00000090: f21e de3d 4d96 1dbf 9791 993d 142f 33bf
000000a0: 590f 87bf 1349 f03e ffc8 b83e f53c 57be
000000b0: 021b 223e c1e7 993e 3ef4 6cbf eb47 0a3f
000000c0: 3778 5dbf 1a72 cdbe c03b 2abf 58af 98bf
000000d0: f61d 4cbe 9c6d 983f 490d 003f bebe 98be

l3.bias f4 [7]
-0.21228579 0.1841393 0.1310018 -0.16970748 -0.21536502 -0.36597744 0.05051736
00000000: 7261 59be 038f 3c3e 5625 063e ccc7 2dbe
00000010: a688 5cbe 6561 bbbe 4beb 4e3d
